…
(INFO) 2020-01-03 09:04:39: Namespace(batch_size=6, checkpoints_path=PosixPath('experiments/clothes3/196_clothes3/checkpoints'), dataset='ClothesSegDataset', dataset_path='/media/kk/databases/ClothesSegDataset', device=device(type='cuda'), exp_name='clothes3', gpus='1,2,3', logs_path=PosixPath('experiments/clothes3/196_clothes3/logs'), ngpus=3, no_cuda=False, no_exp=False, prop_num_epochs=10, prop_num_points=32, run_path=PosixPath('experiments/clothes3/196_clothes3'), seg_num_epochs=200, seg_num_points=12, start_epoch=0, val_batch_size=1, weights='/home/unaguo/proj/adaptis-pytorch/projects/clothes3/experiments/clothes3/193_clothes3/checkpoints/ep-80-loss-0.7086685662737289_model.pth', workers=4)
(INFO) 2020-01-03 09:04:39: AdaptISWithLoss(
  (backbone): UNet(
    (image_bn): BatchNorm2d(3, eps=1e-05, momentum=0.1, affine=True, track_running_stats=True)
    (encoder): ModuleList(
      (0): Sequential(
        (0): Identity()
        (1): DownBlock(
          (down_block): Sequential(
            (0): ConvBlock(
              (conv_block): Sequential(
                (0): Conv2d(3, 32, kernel_size=(3, 3), stride=(1, 1), padding=(1, 1), bias=False)
                (1): ReLU()
                (2): BatchNorm2d(32, eps=1e-05, momentum=0.1, affine=True, track_running_stats=True)
              )
            )
            (1): ConvBlock(
              (conv_block): Sequential(
                (0): Conv2d(32, 32, kernel_size=(3, 3), stride=(1, 1), padding=(1, 1), bias=False)
                (1): ReLU()
                (2): BatchNorm2d(32, eps=1e-05, momentum=0.1, affine=True, track_running_stats=True)
              )
            )
          )
        )
      )
      (1): Sequential(
        (0): MaxPool2d(kernel_size=2, stride=2, padding=0, dilation=1, ceil_mode=True)
        (1): DownBlock(
          (down_block): Sequential(
            (0): ConvBlock(
              (conv_block): Sequential(
                (0): Conv2d(32, 64, kernel_size=(3, 3), stride=(1, 1), padding=(1, 1), bias=False)
                (1): ReLU()
                (2): BatchNorm2d(64, eps=1e-05, momentum=0.1, affine=True, track_running_stats=True)
              )
            )
            (1): ConvBlock(
              (conv_block): Sequential(
                (0): Conv2d(64, 64, kernel_size=(3, 3), stride=(1, 1), padding=(1, 1), bias=False)
                (1): ReLU()
                (2): BatchNorm2d(64, eps=1e-05, momentum=0.1, affine=True, track_running_stats=True)
              )
            )
          )
        )
      )
      (2): Sequential(
        (0): MaxPool2d(kernel_size=2, stride=2, padding=0, dilation=1, ceil_mode=True)
        (1): DownBlock(
          (down_block): Sequential(
            (0): ConvBlock(
              (conv_block): Sequential(
                (0): Conv2d(64, 128, kernel_size=(3, 3), stride=(1, 1), padding=(1, 1), bias=False)
                (1): ReLU()
                (2): BatchNorm2d(128, eps=1e-05, momentum=0.1, affine=True, track_running_stats=True)
              )
            )
            (1): ConvBlock(
              (conv_block): Sequential(
                (0): Conv2d(128, 128, kernel_size=(3, 3), stride=(1, 1), padding=(1, 1), bias=False)
                (1): ReLU()
                (2): BatchNorm2d(128, eps=1e-05, momentum=0.1, affine=True, track_running_stats=True)
              )
            )
          )
        )
      )
      (3): Sequential(
        (0): MaxPool2d(kernel_size=2, stride=2, padding=0, dilation=1, ceil_mode=True)
        (1): DownBlock(
          (down_block): Sequential(
            (0): ConvBlock(
              (conv_block): Sequential(
                (0): Conv2d(128, 256, kernel_size=(3, 3), stride=(1, 1), padding=(1, 1), bias=False)
                (1): ReLU()
                (2): BatchNorm2d(256, eps=1e-05, momentum=0.1, affine=True, track_running_stats=True)
              )
            )
            (1): ConvBlock(
              (conv_block): Sequential(
                (0): Conv2d(256, 256, kernel_size=(3, 3), stride=(1, 1), padding=(1, 1), bias=False)
                (1): ReLU()
                (2): BatchNorm2d(256, eps=1e-05, momentum=0.1, affine=True, track_running_stats=True)
              )
            )
          )
        )
      )
      (4): Sequential(
        (0): MaxPool2d(kernel_size=2, stride=2, padding=0, dilation=1, ceil_mode=True)
        (1): DownBlock(
          (down_block): Sequential(
            (0): ConvBlock(
              (conv_block): Sequential(
                (0): Conv2d(256, 512, kernel_size=(3, 3), stride=(1, 1), padding=(1, 1), bias=False)
                (1): ReLU()
                (2): BatchNorm2d(512, eps=1e-05, momentum=0.1, affine=True, track_running_stats=True)
              )
            )
            (1): ConvBlock(
              (conv_block): Sequential(
                (0): Conv2d(512, 512, kernel_size=(3, 3), stride=(1, 1), padding=(1, 1), bias=False)
                (1): ReLU()
                (2): BatchNorm2d(512, eps=1e-05, momentum=0.1, affine=True, track_running_stats=True)
              )
            )
          )
        )
      )
    )
    (decoder): ModuleList(
      (0): UpBlock(
        (upsampler): Sequential(
          (0): BilinearConvTranspose2d(512, 256, kernel_size=(4, 4), stride=(2, 2), padding=(1, 1), groups=256, bias=False)
          (1): ReLU()
        )
        (conv3_0): ConvBlock(
          (conv_block): Sequential(
            (0): Conv2d(512, 256, kernel_size=(3, 3), stride=(1, 1), padding=(1, 1), bias=False)
            (1): ReLU()
            (2): BatchNorm2d(256, eps=1e-05, momentum=0.1, affine=True, track_running_stats=True)
          )
        )
        (conv3_1): ConvBlock(
          (conv_block): Sequential(
            (0): Conv2d(256, 128, kernel_size=(3, 3), stride=(1, 1), padding=(1, 1), bias=False)
            (1): ReLU()
            (2): BatchNorm2d(128, eps=1e-05, momentum=0.1, affine=True, track_running_stats=True)
          )
        )
      )
      (1): UpBlock(
        (upsampler): Sequential(
          (0): BilinearConvTranspose2d(128, 128, kernel_size=(4, 4), stride=(2, 2), padding=(1, 1), groups=128, bias=False)
          (1): ReLU()
        )
        (conv3_0): ConvBlock(
          (conv_block): Sequential(
            (0): Conv2d(256, 128, kernel_size=(3, 3), stride=(1, 1), padding=(1, 1), bias=False)
            (1): ReLU()
            (2): BatchNorm2d(128, eps=1e-05, momentum=0.1, affine=True, track_running_stats=True)
          )
        )
        (conv3_1): ConvBlock(
          (conv_block): Sequential(
            (0): Conv2d(128, 64, kernel_size=(3, 3), stride=(1, 1), padding=(1, 1), bias=False)
            (1): ReLU()
            (2): BatchNorm2d(64, eps=1e-05, momentum=0.1, affine=True, track_running_stats=True)
          )
        )
      )
      (2): UpBlock(
        (upsampler): Sequential(
          (0): BilinearConvTranspose2d(64, 64, kernel_size=(4, 4), stride=(2, 2), padding=(1, 1), groups=64, bias=False)
          (1): ReLU()
        )
        (conv3_0): ConvBlock(
          (conv_block): Sequential(
            (0): Conv2d(128, 64, kernel_size=(3, 3), stride=(1, 1), padding=(1, 1), bias=False)
            (1): ReLU()
            (2): BatchNorm2d(64, eps=1e-05, momentum=0.1, affine=True, track_running_stats=True)
          )
        )
        (conv3_1): ConvBlock(
          (conv_block): Sequential(
            (0): Conv2d(64, 32, kernel_size=(3, 3), stride=(1, 1), padding=(1, 1), bias=False)
            (1): ReLU()
            (2): BatchNorm2d(32, eps=1e-05, momentum=0.1, affine=True, track_running_stats=True)
          )
        )
      )
      (3): UpBlock(
        (upsampler): Sequential(
          (0): BilinearConvTranspose2d(32, 32, kernel_size=(4, 4), stride=(2, 2), padding=(1, 1), groups=32, bias=False)
          (1): ReLU()
        )
        (conv3_0): ConvBlock(
          (conv_block): Sequential(
            (0): Conv2d(64, 32, kernel_size=(3, 3), stride=(1, 1), padding=(1, 1), bias=False)
            (1): ReLU()
            (2): BatchNorm2d(32, eps=1e-05, momentum=0.1, affine=True, track_running_stats=True)
          )
        )
        (conv3_1): ConvBlock(
          (conv_block): Sequential(
            (0): Conv2d(32, 32, kernel_size=(3, 3), stride=(1, 1), padding=(1, 1), bias=False)
            (1): ReLU()
            (2): BatchNorm2d(32, eps=1e-05, momentum=0.1, affine=True, track_running_stats=True)
          )
        )
      )
    )
    (final_block): DownBlock(
      (down_block): Sequential(
        (0): ConvBlock(
          (conv_block): Sequential(
            (0): Conv2d(32, 32, kernel_size=(3, 3), stride=(1, 1), padding=(1, 1), bias=False)
            (1): ReLU()
            (2): BatchNorm2d(32, eps=1e-05, momentum=0.1, affine=True, track_running_stats=True)
          )
        )
        (1): ConvBlock(
          (conv_block): Sequential(
            (0): Conv2d(32, 32, kernel_size=(3, 3), stride=(1, 1), padding=(1, 1), bias=False)
            (1): ReLU()
            (2): BatchNorm2d(32, eps=1e-05, momentum=0.1, affine=True, track_running_stats=True)
          )
        )
      )
    )
  )
  (adaptis_head): ToyAdaptISHead(
    (EQF): ExtractQueryFeatures(
      (extractor): RoIAlign(output_size=(1, 1), spatial_scale=1.0, sampling_ratio=-1)
    )
    (controller): SimpleConvController(
      (controller): Sequential(
        (0): Conv2d(32, 32, kernel_size=(1, 1), stride=(1, 1))
        (1): ReLU()
        (2): BatchNorm2d(32, eps=1e-05, momentum=0.1, affine=True, track_running_stats=True)
        (3): Conv2d(32, 32, kernel_size=(1, 1), stride=(1, 1))
        (4): ReLU()
        (5): BatchNorm2d(32, eps=1e-05, momentum=0.1, affine=True, track_running_stats=True)
        (6): Conv2d(32, 32, kernel_size=(1, 1), stride=(1, 1))
        (7): ReLU()
        (8): BatchNorm2d(32, eps=1e-05, momentum=0.1, affine=True, track_running_stats=True)
      )
    )
    (add_coord_features): AppendCoordFeatures()
    (block0): Sequential(
      (0): Conv2d(35, 32, kernel_size=(3, 3), stride=(1, 1), padding=(1, 1))
      (1): ReLU()
      (2): BatchNorm2d(32, eps=1e-05, momentum=0.1, affine=True, track_running_stats=True)
      (3): Conv2d(32, 32, kernel_size=(3, 3), stride=(1, 1), padding=(1, 1))
      (4): ReLU()
      (5): BatchNorm2d(32, eps=1e-05, momentum=0.1, affine=True, track_running_stats=True)
      (6): Conv2d(32, 32, kernel_size=(3, 3), stride=(1, 1), padding=(1, 1))
      (7): ReLU()
      (8): BatchNorm2d(32, eps=1e-05, momentum=0.1, affine=True, track_running_stats=True)
    )
    (adain): AdaIN(
      (affine_scale): Linear(in_features=32, out_features=32, bias=True)
      (affine_bias): Linear(in_features=32, out_features=32, bias=True)
      (in_2d): InstanceNorm2d(32, eps=1e-05, momentum=0.0, affine=False, track_running_stats=False)
    )
    (block1): Sequential(
      (0): Conv2d(32, 16, kernel_size=(3, 3), stride=(1, 1), padding=(1, 1))
      (1): ReLU()
      (2): BatchNorm2d(16, eps=1e-05, momentum=0.1, affine=True, track_running_stats=True)
      (3): Conv2d(16, 1, kernel_size=(1, 1), stride=(1, 1))
    )
  )
  (segmentation_head): ConvHead(
    (convhead): Sequential(
      (0): Conv2d(32, 32, kernel_size=(3, 3), stride=(1, 1), padding=(1, 1))
      (1): ReLU()
      (2): BatchNorm2d(32, eps=1e-05, momentum=0.1, affine=True, track_running_stats=True)
      (3): Conv2d(32, 32, kernel_size=(3, 3), stride=(1, 1), padding=(1, 1))
      (4): ReLU()
      (5): BatchNorm2d(32, eps=1e-05, momentum=0.1, affine=True, track_running_stats=True)
      (6): Conv2d(32, 32, kernel_size=(3, 3), stride=(1, 1), padding=(1, 1))
      (7): ReLU()
      (8): BatchNorm2d(32, eps=1e-05, momentum=0.1, affine=True, track_running_stats=True)
      (9): Conv2d(32, 2, kernel_size=(1, 1), stride=(1, 1))
    )
  )
)
(INFO) 2020-01-03 09:04:45: could use 3 gpus.
(INFO) 2020-01-03 09:04:45: Starting Epoch: 0
(INFO) 2020-01-03 09:04:45: Total Epochs: 200
(INFO) 2020-01-03 09:04:45: 0%|                                                                       | 0/199 [00:00<?, ?it/s]
(INFO) 2020-01-03 09:05:01: Epoch 0, training loss 0.723255:   0%|                                      | 0/199 [00:15<?, ?it/s]
…
